assets/arabic_sentence_model.tflite (tflite, 674372 bytes, 11 tensors)

arith.constant5 f4 [128, 1, 5, 64]
000000 ae 84 ac 3d c0 b6 cf 3d 8c da 1b 3c e0 7c 28 bb
       0.08423744 0.10142279 0.009512555 -0.0025709197
000010 07 f5 0b 3d 44 9e 20 bd 13 c8 d1 bc 6d 07 70 3d
       0.034169223 -0.039213434 -0.025608098 0.05860083
000020 4e ff c9 bc 04 f4 9e bd 1c e8 83 3d 1d 0b cc 3d
       -0.024657872 -0.07761386 0.06440756 0.09963057
000030 ae e8 35 3d 80 96 d3 3d 7a ff 68 bd 92 b8 1d 3d
       0.044411354 0.1033144 -0.056884266 0.038506098
000040 bd a4 50 3d ec f9 02 3e 85 47 22 bd 75 8f 9a 3d
       0.050938357 0.1279065 -0.039618988 0.075468935
000050 be a9 07 3d a0 45 41 3c 20 9b 8b bd 4c cf 39 3d
       0.033120863 0.011796385 -0.06816697 0.04536371
000060 60 75 f3 3d 55 f6 a8 3c 10 20 a5 bc 12 63 22 bd
       0.11887622 0.020625273 -0.02015689 -0.039645262
000070 74 99 61 bd 0f 00 21 3d dd 89 50 bd 1f 9a e6 3d
       -0.055077985 0.039306697 -0.050912727 0.11259865
000080 d2 a0 cc 3d de a1 b7 bc fa 57 70 3d 7e 51 19 3d
       0.099916115 -0.022416051 0.05867765 0.037431233
000090 89 08 95 3d cb bf a5 bd 70 a0 d4 3c 5e 56 66 bd
       0.072770186 -0.08093222 0.025955409 -0.05623471
0000a0 5a 92 3a bd a0 59 38 bd dc f8 bf bd 8e b5 98 bc
       -0.045549728 -0.045007348 -0.09373638 -0.01864126
0000b0 e1 83 a5 3d 50 e8 ac 3d 1d e3 c0 3d 4e 29 cb bc
       0.080817945 0.084427476 0.094183184 -0.024799969
0000c0 d5 62 2b bd 1c dc fa 3d 13 44 78 3d 13 47 56 3d
       -0.0418423 0.12249014 0.060611796 0.052313875
0000d0 a3 0d c5 3d 73 17 af bd 80 44 1e 3d 33 4c 8f bd
       0.096217416 -0.085493945 0.038639545 -0.06996956
0000e0 87 53 86 bc e5 86 e9 3d 82 32 6f 3d fe 17 89 3a
       -0.01639725 0.11402682 0.058397777 0.0010459421
0000f0 36 7e 6c bd 81 3d 1b 3d 99 5c 0b bd 8f ef 3d 3c
       -0.05773755 0.03790045 -0.034023855 0.01159276
000100 d1 f4 85 bd 0a a5 63 bd 4b cb 95 bc 78 e7 8f bd
       -0.06540836 -0.055577315 -0.018285414 -0.07026571
000110 47 5e 7a 3d a3 e4 7f bd ce 78 0f 3d 28 48 47 bd
       0.061125066 -0.062473904 0.035027318 -0.048652798
000120 32 a3 71 3d b7 43 7f bd 90 c6 b3 bb ef 57 16 bd
       0.058993526 -0.062320437 -0.005486317 -0.036704954
000130 1f 09 5c 3d 96 28 08 3a 2e c2 50 3d be cd 67 3d
       0.053719636 0.0005194036 0.050966434 0.056592695
000140 9b fd 71 bd 1c eb 49 bd 42 4d 96 bd 7e e2 50 3d
       -0.059079748 -0.049296483 -0.073389545 0.05099725
000150 f4 09 83 3c 0a 8b 95 bd 6c 90 8a 3c ee f4 bc bc
       0.015995957 -0.0730191 0.016914569 -0.02306601
000160 4e 3e 89 bd 68 2b 6f 3d 3e 19 48 3d b3 7a f9 3c
       -0.06701337 0.058391005 0.048852198 0.030454015
000170 70 32 89 bc f3 5f 6c 3d 56 25 de 3c b2 2f 31 bc
       -0.016747683 0.05770869 0.027117413 -0.010814594
000180 0b 7e a1 bb 00 97 2e bd bb e9 07 bd 56 b0 7a 3d
       -0.0049283556 -0.042624474 -0.033181887 0.061203323
000190 32 4f 92 bd 4d a9 7a bd 76 fa 92 3d fb 6c 99 3d
       -0.071440116 -0.061196614 0.07176678 0.074914895
0001a0 e0 3d 5e bc 5e 6c 05 3d b9 7b 87 3d b8 99 11 bd
       -0.013564557 0.03257405 0.06615395 -0.03554699
0001b0 9e f1 24 3d de 27 80 bd 4e 80 0c 3d e9 7c 9e 3d
       0.040269487 -0.06257604 0.03430205 0.077386685
0001c0 cb da 28 3d fd 57 79 3d a4 97 52 3d f1 a6 46 bd
       0.041224282 0.060874928 0.051414147 -0.04849905
0001d0 8d cd 2a bd 45 c8 bc bb 57 a0 9e bc 5b 45 72 39
       -0.041699935 -0.0057611787 -0.019363565 0.00023104755
0001e0 b4 1d 78 3d 96 24 8d 3d 91 b7 60 3d 40 30 82 3d
       0.060575202 0.06891744 0.054862563 0.06356859
0001f0 d5 8c bb bc e5 45 80 3d 4d d2 b2 3c 8a b7 a0 bc
       -0.022894302 0.06263331 0.021828795 -0.019618768
000200 38 f6 2a 3d e3 87 5d 3a 1f 0c bd 3c d2 33 74 3d
       0.04173872 0.00084507297 0.023077069 0.059619732
000210 1d 47 c9 3c 76 a8 4d 3d 54 fb 97 bd 26 18 47 bd
       0.024570042 0.050209485 -0.07420984 -0.048607014
000220 91 12 82 bd 72 dd 1b bd 86 83 04 bd 12 2a 23 bd
       -0.063511975 -0.038052984 -0.032351993 -0.039835043
000230 c6 91 37 bc 92 c1 cb 3c 26 e0 93 3d 4c fb 5d bd
       -0.011204189 0.024872575 0.07220487 -0.054194734
000240 33 1a df bb 52 14 e0 3b e3 f3 2d 3c 0a c3 53 3d
       -0.006808543 0.00683836 0.010617229 0.051699676
000250 e1 e4 76 bd b4 98 22 bd 53 6d 84 bd 4a 90 20 3d
       -0.06027687 -0.03969641 -0.064661644 0.039200105
000260 17 2f 83 3c 7f 0c 5d bc 00 41 f1 bb 8d 8f 81 3d
       0.016013665 -0.013491749 -0.007362485 0.06326208
000270 57 d4 8f bd ae 4a 02 3d c3 49 36 bd f1 4a 6f 3d
       -0.070229225 0.0318095 -0.04450394 0.05842108
000280 49 8e 73 39 86 b0 ec bc 06 9c 3c 3d bc 66 99 bc
       0.00023227291 -0.028892767 0.046047233 -0.018725745
000290 95 46 42 bd 1d e2 24 3d c8 11 66 bd 61 3d 9b 3d
       -0.047430594 0.0402547 -0.0561693 0.075800665
0002a0 d8 72 5e 3c 79 3b 0c bc d1 2b 14 3d 03 1e a1 bd
       0.013577186 -0.008559101 0.0361746 -0.078670524
0002b0 24 f4 ea 3c bd ab 8f 3d f2 87 37 bd af 71 94 bd
       0.028680868 0.07015178 -0.044807382 -0.07248246
0002c0 07 82 e5 3c fb f2 9b 3c 2c 5e 6c bd 94 07 39 3d
       0.028016103 0.01903676 -0.057706997 0.045173243
0002d0 ab 75 97 bb e3 79 42 3c c2 1d 33 bb b8 8b 42 3c
       -0.0046221814 0.01186988 -0.002733097 0.011874132
0002e0 0e 58 73 3b 67 25 13 3d 03 67 96 bd 6e 3d 9b 3c
       0.0037131342 0.03592434 -0.07343867 0.01895019
0002f0 83 4f 43 bd 28 80 05 3c 57 d0 c6 3c e9 da 36 bd
       -0.04768325 0.008148231 0.024269266 -0.044642363
000300 5b fc 80 3d d8 d4 4c bd 9a fc 21 3d cc a7 84 bd
       0.06298133 -0.05000767 0.03954754 -0.06477317
000310 02 45 76 bd 06 fa 25 bd c4 d1 a6 bc fc 71 2b 3d
       -0.060124405 -0.040521644 -0.020363696 0.04185675
000320 41 05 9f 3d 3c da bf 3b 93 fe 9e bd bd ae 8c 3c
       0.07764674 0.005854873 -0.077634 0.017173165
000330 2c 9a fb 3b e5 39 79 3d d2 f2 0a bd ba d9 68 bd
       0.007678291 0.06084623 -0.033922978 -0.056848265
000340 7f 60 fe bc 62 fe 19 bd fb 17 c2 bb 45 57 9f bd
       -0.031051872 -0.037596114 -0.005923269 -0.07780317
000350 e5 20 82 bd dc 08 d9 3c 72 2c 43 3d 0a 38 a9 bc
       -0.063539304 0.026493482 0.04764981 -0.020656604
000360 23 38 e3 3c 73 b2 e3 ba 80 0a 2f bd 7b ca 37 3d
       0.027736729 -0.0017371908 -0.042734623 0.044870835
000370 22 11 81 bd 4f a1 7e 3d 57 26 e9 bb d1 fa 1c 3d
       -0.06302096 0.062165555 -0.007115166 0.038325135
000380 42 50 51 bd a2 d9 26 3d 19 2d 64 bd 5a 61 2b 3d
       -0.05110193 0.040734895 -0.05570707 0.04184089
000390 77 5c 1c 3c 19 ec fe bc 49 2a 85 bb 0c 56 91 bd
       0.00954353 -0.03111844 -0.0040638787 -0.0709649
0003a0 c2 78 7f 3d 31 9f 04 3d 7b b7 8b 3d ca 35 d5 b9
       0.062371023 0.03237838 0.068221055 -0.00040666602
0003b0 c8 d5 66 bd 58 13 f9 3c c8 1f 1d 3d 00 c0 75 b9
       -0.05635622 0.030404732 0.038360387 -0.00023436546
0003c0 4b 39 3a bd 3b 54 14 bd a6 d7 78 3d b8 20 cb 3b
       -0.045464795 -0.03621314 0.060752533 0.0061989687
0003d0 f1 a4 92 bd 0b 89 80 bb b1 60 80 3c 50 d0 a5 bd
       -0.07160366 -0.003922587 0.015671106 -0.08096373
0003e0 c4 03 8c bd a0 c6 92 3c 20 df a7 bd 08 d4 3c bb
       -0.06836656 0.017916977 -0.081968546 -0.0028812904
0003f0 c1 07 13 ba 70 a3 8c 3c 59 26 ff bc 12 e7 97 3d
       -0.00056087604 0.017167777 -0.031146215 0.0741712

arith.constant6 f4 [128]
000000 00 00 00 00 00 00 00 00 00 00 00 00 00 00 00 00
       0.0 0.0 0.0 0.0
000010 00 00 00 00 00 00 00 00 00 00 00 00 00 00 00 00
       0.0 0.0 0.0 0.0
000020 00 00 00 00 00 00 00 00 00 00 00 00 00 00 00 00
       0.0 0.0 0.0 0.0
000030 00 00 00 00 00 00 00 00 00 00 00 00 00 00 00 00
       0.0 0.0 0.0 0.0
000040 00 00 00 00 00 00 00 00 00 00 00 00 00 00 00 00
       0.0 0.0 0.0 0.0
000050 00 00 00 00 00 00 00 00 00 00 00 00 00 00 00 00
       0.0 0.0 0.0 0.0
000060 00 00 00 00 00 00 00 00 00 00 00 00 00 00 00 00
       0.0 0.0 0.0 0.0
000070 00 00 00 00 00 00 00 00 00 00 00 00 00 00 00 00
       0.0 0.0 0.0 0.0
000080 00 00 00 00 00 00 00 00 00 00 00 00 00 00 00 00
       0.0 0.0 0.0 0.0
000090 00 00 00 00 00 00 00 00 00 00 00 00 00 00 00 00
       0.0 0.0 0.0 0.0
0000a0 00 00 00 00 00 00 00 00 00 00 00 00 00 00 00 00
       0.0 0.0 0.0 0.0
0000b0 00 00 00 00 00 00 00 00 00 00 00 00 00 00 00 00
       0.0 0.0 0.0 0.0
0000c0 00 00 00 00 00 00 00 00 00 00 00 00 00 00 00 00
       0.0 0.0 0.0 0.0
0000d0 00 00 00 00 00 00 00 00 00 00 00 00 00 00 00 00
       0.0 0.0 0.0 0.0
0000e0 00 00 00 00 00 00 00 00 00 00 00 00 00 00 00 00
       0.0 0.0 0.0 0.0
0000f0 00 00 00 00 00 00 00 00 00 00 00 00 00 00 00 00
       0.0 0.0 0.0 0.0
000100 00 00 00 00 00 00 00 00 00 00 00 00 00 00 00 00
       0.0 0.0 0.0 0.0
000110 00 00 00 00 00 00 00 00 00 00 00 00 00 00 00 00
       0.0 0.0 0.0 0.0
000120 00 00 00 00 00 00 00 00 00 00 00 00 00 00 00 00
       0.0 0.0 0.0 0.0
000130 00 00 00 00 00 00 00 00 00 00 00 00 00 00 00 00
       0.0 0.0 0.0 0.0
000140 00 00 00 00 00 00 00 00 00 00 00 00 00 00 00 00
       0.0 0.0 0.0 0.0
000150 00 00 00 00 00 00 00 00 00 00 00 00 00 00 00 00
       0.0 0.0 0.0 0.0
000160 00 00 00 00 00 00 00 00 00 00 00 00 00 00 00 00
       0.0 0.0 0.0 0.0
000170 00 00 00 00 00 00 00 00 00 00 00 00 00 00 00 00
       0.0 0.0 0.0 0.0
000180 00 00 00 00 00 00 00 00 00 00 00 00 00 00 00 00
       0.0 0.0 0.0 0.0
000190 00 00 00 00 00 00 00 00 00 00 00 00 00 00 00 00
       0.0 0.0 0.0 0.0
0001a0 00 00 00 00 00 00 00 00 00 00 00 00 00 00 00 00
       0.0 0.0 0.0 0.0
0001b0 00 00 00 00 00 00 00 00 00 00 00 00 00 00 00 00
       0.0 0.0 0.0 0.0
0001c0 00 00 00 00 00 00 00 00 00 00 00 00 00 00 00 00
       0.0 0.0 0.0 0.0
0001d0 00 00 00 00 00 00 00 00 00 00 00 00 00 00 00 00
       0.0 0.0 0.0 0.0
0001e0 00 00 00 00 00 00 00 00 00 00 00 00 00 00 00 00
       0.0 0.0 0.0 0.0
0001f0 00 00 00 00 00 00 00 00 00 00 00 00 00 00 00 00
       0.0 0.0 0.0 0.0

arith.constant7 f4 [64, 1, 5, 128]
000000 38 1e bc 3b 4d f9 62 bd f6 fc 26 3d 0d e0 73 3d
       0.005740907 -0.055413533 0.040768586 0.059539843
000010 23 de 9d 3d 4a 5a 22 bd 15 57 f3 bc 67 76 cd 3c
       0.07708385 -0.039636888 -0.02970461 0.025080873
000020 5d 0d 29 bd 40 a6 eb bc ac 6c a1 3d dc 7d 89 bd
       -0.04127251 -0.028765798 0.07882056 -0.06713459
000030 80 33 3b 3d 90 29 78 3c 88 23 82 3c 89 78 4d bd
       0.04570341 0.015146628 0.015886083 -0.05016378
000040 9a 91 4d 3d 8c 0d 1a bc 05 83 93 3d 50 4d 89 bb
       0.050187685 -0.009402644 0.07202724 -0.0041901246
000050 85 fc 5c bd 60 14 bf bc 6d 44 96 3d 3f d3 83 bd
       -0.05395176 -0.023325145 0.0733727 -0.06436776
000060 fb c3 ec bc 51 1f 97 bc 93 2e 80 3d 6d 03 7d bd
       -0.028902045 -0.01844755 0.06258883 -0.061770845
000070 6e 6e 97 bd da 5e 35 bd 57 9a 86 3c 1f a8 78 3d
       -0.0739411 -0.04427991 0.016431017 0.060707208
000080 98 68 6d bd af b7 4e 3d cd 7e 8b 3c 3e 11 56 bd
       -0.057961076 0.050468143 0.017028237 -0.052262537
000090 75 98 45 bd 66 b6 1f 3c 9b ac 21 3c 2f 79 1a bd
       -0.048241097 0.009748077 0.0098678125 -0.037713226
0000a0 a4 83 48 bb 7a fe c9 3b d6 3d af bc f9 ac 6e 3d
       -0.0030596042 0.006164369 -0.02139179 0.05827043
0000b0 0e 8a 82 bd 9a a3 fe 3c 56 bd ac 3c be c1 18 3c
       -0.06373988 0.03108387 0.021086376 0.0093235355
0000c0 21 9e 99 bd ba 46 8f 3c 7f f2 79 3d b3 70 22 3d
       -0.07500864 0.01748978 0.061022278 0.03965826
0000d0 30 66 a9 3d cf 85 a9 3b 39 53 78 bc 92 62 43 3b
       0.08271444 0.005173422 -0.015156561 0.002981339
0000e0 cf 80 19 3d 5f 5e 3e 3d ba bb ba bc 37 8b 0b 3d
       0.037476357 0.046476718 -0.022794593 0.034068312
0000f0 42 22 98 3d fb 19 08 bd 06 39 eb 3c 92 25 2f bd
       0.07428409 -0.033227902 0.028713714 -0.04276044
000100 0d 3d 5f bd 30 c5 a0 3c 79 96 6b bd 80 b1 76 bd
       -0.054501582 0.019625276 -0.05751655 -0.06022787
000110 7c b2 f7 bc 66 8a 75 bd 29 73 e1 3c 33 5a 85 bd
       -0.030236475 -0.05994644 0.027520733 -0.06511345
000120 34 06 3c 3d 81 64 c1 bc 5e e1 81 3d c2 2e 38 3d
       0.045904353 -0.023607494 0.063418135 0.044966467
000130 c4 b4 3b bd ab a9 d6 3c 4f 79 a8 bc af a4 97 3c
       -0.04582669 0.02620395 -0.020565657 0.018511144
000140 a6 d7 61 3d a6 61 b5 3c 11 bd 87 bd 4a 73 98 bc
       0.0551373 0.022141289 -0.066278584 -0.018609662
000150 14 87 73 bd d0 24 80 bd f6 42 9b ba a7 90 a9 bc
       -0.059454992 -0.062570214 -0.0011845517 -0.020698858
000160 24 70 22 bd 61 9a 27 ba 54 12 64 3d d1 1c 60 bd
       -0.039657727 -0.00063935487 0.05568154 -0.05471498
000170 de 1d 06 3d 6d b4 ee 3c 71 12 b0 3b 32 70 8e bc
       0.032743327 0.029138768 0.005373292 -0.017387483
000180 31 af 8d bd 8a b2 13 3d 2e a7 82 bd 66 f5 21 bb
       -0.06918181 0.03605894 -0.06379543 -0.002471292
000190 1e e3 8d 3d 57 86 c5 3c 4a be 91 3d 32 04 f0 3c
       0.06928085 0.02411191 0.07116373 0.029298875
0001a0 99 29 0b bb 2b 2a b6 3b 61 08 17 3d 48 0e c4 bc
       -0.002123451 0.005559226 0.036873225 -0.023932591
0001b0 f5 66 40 bd 15 4c 41 bd 30 58 09 bc b9 9c 24 3d
       -0.046973187 -0.047191698 -0.008382842 0.040188525
0001c0 f3 a3 7f bd 3c 27 bd 3b bc a5 7c bd c3 1c 8d bd
       -0.062412214 0.0057724994 -0.061681494 -0.068902515
0001d0 02 36 f7 3c 54 f5 4b 3d e7 73 b3 bb 78 35 4d 3d
       0.03017712 0.04979451 -0.005476463 0.05009982
0001e0 d2 ba aa bd 87 72 92 3d 28 52 4c bd d2 c9 cc 3c
       -0.083364144 0.071507506 -0.049883038 0.02499858
0001f0 5e d5 95 3c 58 96 9a bd c9 5f 82 bb 0b d1 2c bd
       0.018290218 -0.07548207 -0.0039787036 -0.042191546
000200 88 06 90 3d e7 45 c7 3c 3c d8 af 3c 21 bc 13 3b
       0.07032496 0.024325324 0.021465413 0.0022542553
000210 22 8e 46 3d 8b 82 a3 bd f6 d1 8d 3d be 17 5b 3c
       0.048475392 -0.079838835 0.069248125 0.01337236
000220 3d 1f 38 bd 7e dc d6 bc e7 bc c1 bc 66 2b 97 bd
       -0.044951666 -0.026228186 -0.023649646 -0.073813245
000230 bf e5 9d bd bf 03 18 bd 2c 3d 34 3c 84 03 9c bd
       -0.07709836 -0.037112948 0.011000913 -0.07617858
000240 36 e5 ca bc 5f 67 a4 bc bf 60 5a bd 6e fc a7 3c
       -0.0247675 -0.020068822 -0.05331492 0.02050611
000250 0b c6 ba 3c d5 8d 99 bc 7e c6 9d bd 01 7c bb 3c
       0.022799512 -0.018744389 -0.07703875 0.022886278
000260 23 18 1f 3c 11 20 a2 3c 70 ef 6e 3d d0 90 6f bc
       0.0097103445 0.019790681 0.058333814 -0.014621928
000270 31 39 96 bc 42 00 8d bc ea b3 c2 3c af f3 67 3d
       -0.018337818 -0.017212037 0.02376743 0.05662888
000280 27 b5 57 bd cf 6a 8a 3c 97 2a 9c 3b ec d9 76 bb
       -0.052662995 0.016896633 0.0047658193 -0.0037666513
000290 eb 3a 6c 3c 70 41 9d bd cb a9 90 bc aa 8e f9 3c
       0.014418344 -0.07678497 -0.017659089 0.030463535
0002a0 10 ea 8b 3c 76 ba 85 3d 83 a0 0c b9 9c af 6f 3c
       0.017079383 0.06529705 -0.00013411236 0.014629271
0002b0 3d d1 a8 3c 16 5b f3 3c 85 1e 49 bd 2a cf 64 bd
       0.020607585 0.02970652 -0.04910137 -0.05586163
0002c0 ac a4 97 3b eb eb 77 bd ef ea 07 bd 3a 96 35 bd
       0.0046277847 -0.060527723 -0.033183035 -0.04433272
0002d0 78 2e 84 3c 5f e8 f9 3b 63 3f 01 bd d1 aa 58 bd
       0.01613544 0.0076265777 -0.03155459 -0.05289728
0002e0 d9 7e 6e 3d 16 57 42 3c c2 44 48 bd ff 28 9d bd
       0.05822644 0.011861583 -0.048893698 -0.07673835
0002f0 60 32 78 3c df 0c af 3c e4 6e 70 3d e5 be 2c bd
       0.015148729 0.021368442 0.058699504 -0.04217424
000300 48 3e 63 3b 3c ea 41 bd 74 01 93 bd 85 73 82 bb
       0.0034674574 -0.047342524 -0.071780115 -0.003981056
000310 bf 28 1d ba dd 19 32 3c 47 e5 3f 3d ac e1 9c ba
       -0.00059951463 0.010870424 0.046849515 -0.0011969111
000320 76 fa c3 bc ff dd e6 3c 32 70 9b bc 8a 71 9d 3d
       -0.02392314 0.028182028 -0.018974397 0.076876715
000330 f0 8b b9 ba 48 55 a8 3c a1 18 62 bd da 3e 84 bc
       -0.0014156085 0.020548478 -0.05519927 -0.016143251
000340 0c cc 85 3d 0b 7c 11 bd c8 c1 1f bd c0 b7 63 bd
       0.065330595 -0.035518687 -0.039003164 -0.05559516
000350 a1 8f 8c bc 8a 1e b5 3c 13 56 5b 3d 64 f0 11 bd
       -0.017158331 0.022109289 0.053548884 -0.035629645
000360 ae b4 d3 bc 48 27 c4 3c 2b b7 7e 3d 90 b9 a5 bd
       -0.02584299 0.023944512 0.0621864 -0.08092034
000370 7e 39 db 3b 36 e7 8d bd fc 42 ae 3a f1 dd 91 bb
       0.006690203 -0.069288656 0.0013295109 -0.0044515063
000380 e0 66 ce 3c 12 98 f3 bb 4b 36 a5 bb a4 77 64 3c
       0.025195539 -0.0074338997 -0.0050418726 0.01394454
000390 0e cc 58 3c 29 b2 27 bd ab 2b 08 bc 90 12 d4 bc
       0.013232244 -0.04094139 -0.0083111925 -0.025887758
0003a0 d6 6e 85 3b bd 2f 8d 3d 17 33 aa bd 53 aa 6d bc
       0.0040720506 0.06893871 -0.08310526 -0.0145059405
0003b0 c7 6f 06 bd 32 c0 6c bc 1f c9 53 bd 57 73 7a bd
       -0.032821443 -0.01445012 -0.051705476 -0.061145153
0003c0 82 d5 4f bd 66 c1 4e bd 82 c5 e1 bb 61 0a d1 bc
       -0.050740726 -0.050477408 -0.00689 -0.025517644
0003d0 1a ec 39 bd c8 61 93 3d 8b 24 b0 bd 93 c2 66 3d
       -0.04539118 0.07196385 -0.0860072 0.056337904
0003e0 bf 9a 49 3d b7 de 6a 3d e0 d7 6b bb ce 5d 37 3d
       0.049219843 0.057341304 -0.0035986826 0.044767193
0003f0 e9 77 0f bd fa 4f 3f 3d 3b 23 93 3d 6f 77 55 3d
       -0.035026465 0.04670713 0.07184454 0.052115854

arith.constant8 f4 [64]
000000 00 00 00 00 00 00 00 00 00 00 00 00 00 00 00 00
       0.0 0.0 0.0 0.0
000010 00 00 00 00 00 00 00 00 00 00 00 00 00 00 00 00
       0.0 0.0 0.0 0.0
000020 00 00 00 00 00 00 00 00 00 00 00 00 00 00 00 00
       0.0 0.0 0.0 0.0
000030 00 00 00 00 00 00 00 00 00 00 00 00 00 00 00 00
       0.0 0.0 0.0 0.0
000040 00 00 00 00 00 00 00 00 00 00 00 00 00 00 00 00
       0.0 0.0 0.0 0.0
000050 00 00 00 00 00 00 00 00 00 00 00 00 00 00 00 00
       0.0 0.0 0.0 0.0
000060 00 00 00 00 00 00 00 00 00 00 00 00 00 00 00 00
       0.0 0.0 0.0 0.0
000070 00 00 00 00 00 00 00 00 00 00 00 00 00 00 00 00
       0.0 0.0 0.0 0.0
000080 00 00 00 00 00 00 00 00 00 00 00 00 00 00 00 00
       0.0 0.0 0.0 0.0
000090 00 00 00 00 00 00 00 00 00 00 00 00 00 00 00 00
       0.0 0.0 0.0 0.0
0000a0 00 00 00 00 00 00 00 00 00 00 00 00 00 00 00 00
       0.0 0.0 0.0 0.0
0000b0 00 00 00 00 00 00 00 00 00 00 00 00 00 00 00 00
       0.0 0.0 0.0 0.0
0000c0 00 00 00 00 00 00 00 00 00 00 00 00 00 00 00 00
       0.0 0.0 0.0 0.0
0000d0 00 00 00 00 00 00 00 00 00 00 00 00 00 00 00 00
       0.0 0.0 0.0 0.0
0000e0 00 00 00 00 00 00 00 00 00 00 00 00 00 00 00 00
       0.0 0.0 0.0 0.0
0000f0 00 00 00 00 00 00 00 00 00 00 00 00 00 00 00 00
       0.0 0.0 0.0 0.0

arith.constant9 f4 [3, 128]
000000 4a dc fa bd bc 6a b0 bc 87 dd 62 be 2f e8 c8 bc
       -0.12249048 -0.02153527 -0.22154818 -0.024524776
000010 ce ed 31 3e db 65 55 3e 08 22 05 bd 7a ec 67 3c
       0.17375872 0.20839636 -0.032503158 0.0141555015
000020 10 7d 10 be c3 72 1b be a6 c3 6e be 81 97 29 3e
       -0.14110208 -0.15180497 -0.23316821 0.165617
000030 2f 84 fb 3b f1 3a 0d 3e 47 23 50 be 5c 58 01 bd
       0.0076756696 0.13792016 -0.20325957 -0.031578407
000040 00 d0 39 bd 2e a3 f3 bd 00 48 b5 3d 4d 20 51 3e
       -0.04536438 -0.118963584 0.088516235 0.20422478
000050 7b c5 1e 3e 58 62 09 bd 74 c8 45 be 93 55 f7 37
       0.1550502 -0.033541054 -0.19314748 2.9484543e-05
000060 f2 af 25 bd f7 88 2e be 0c 2c 4b 3d 0c a5 0e be
       -0.040450998 -0.17044435 0.049602553 -0.13930148
000070 d9 cf 54 be 64 df 41 be cf 2b 32 be f2 94 27 ba
       -0.20782413 -0.18932873 -0.17399524 -0.0006392739
000080 71 b8 ca 3d c4 96 27 be 8b 12 4b 3e df 8f 4f 3e
       0.09898461 -0.16366106 0.19831292 0.20269726
000090 c3 ff 28 3e 59 59 0f 3e 8a 10 ab bd c5 05 83 3e
       0.16503815 0.13998927 -0.08352764 0.2559034
0000a0 7b 4a 4a 3e 21 60 09 3d 53 9c 0d be d7 59 3c 3e
       0.19754975 0.03353894 -0.13829164 0.18393646
0000b0 27 bb 1f be 51 7a 80 3e 25 4b 1c 3e cb 3b 7a 3e
       -0.15598737 0.2509332 0.1526304 0.24436872
0000c0 cc 90 1c 3e f2 d0 8d 3c b8 cf 2c be 30 dd cf bd
       0.1528961 0.017311547 -0.16876113 -0.1014961
0000d0 b7 c2 62 3e 03 fd 3b be 30 8e 6b 3c 34 fb 84 3d
       0.2214459 -0.18358235 0.014377162 0.06493226
0000e0 6e 8b bc 3d fc 98 52 3e 04 a1 64 3c f7 bc 6e 3d
       0.092062816 0.20566171 0.013954405 0.05828568
0000f0 35 4d 2d 3e 8d 5e 56 3e 77 4f 80 3e f8 85 76 3e
       0.16923983 0.20934506 0.25060627 0.24074543
000100 14 23 93 bd 08 c4 d3 3d b9 5a 03 be 6e 5d 2d be
       -0.07184425 0.10340124 -0.12827577 -0.16930172
000110 35 88 5e be 28 ae 07 bd b7 c4 db bd 73 d2 36 3e
       -0.21731646 -0.033125073 -0.1073088 0.17853718
000120 7f 05 61 bd 16 e2 eb 3d 02 16 07 be 55 0e 09 be
       -0.054936882 0.11517732 -0.13191989 -0.13384373
000130 ff 89 5a 3e 57 75 80 be 17 17 d7 3d a9 81 14 3e
       0.21341704 -0.25089523 0.10502451 0.14502586
000140 c4 97 26 bd d8 5b 7d 3e 4b 0e d6 bc 1a d0 55 3d
       -0.04067208 0.24742067 -0.026129862 0.052200414
000150 7d 00 d2 3d 74 52 83 bd 0f 6a 51 be e0 ad 6f bd
       0.102539994 -0.06412211 -0.20450614 -0.05851543
000160 19 3a 86 bc 05 a7 66 be 28 07 72 bd 21 8a 83 3d
       -0.016385125 -0.2252465 -0.059088856 0.064228304
000170 d5 54 53 bd 86 26 bd 3d 02 ff 5a be 93 9d 5e be
       -0.051594574 0.092358634 -0.2138634 -0.21739797
000180 2e c4 89 bd 03 5e 32 be 00 7b 4e bd 66 d7 36 3c
       -0.067268714 -0.17418675 -0.05041027 0.011159753
000190 87 82 cb bd b1 18 37 3c a1 a9 2d 3e 62 66 61 3e
       -0.099370055 0.0111753205 0.1695924 0.22011712
0001a0 a7 21 5f be ad 51 25 bd a9 eb 86 3d d6 bf d6 3d
       -0.21790181 -0.040361095 0.06587917 0.104858086
0001b0 8e dd 23 be c8 2f 63 be c8 7c 23 bc ec c8 23 bd
       -0.16002485 -0.22186196 -0.009978481 -0.039986536
0001c0 0e df 4b 3e e9 28 aa 3b 1b 64 b8 bd 2a 7e 2b 3e
       0.19909307 0.005192865 -0.090034686 0.16747347
0001d0 61 81 90 3d f5 f6 91 bd 42 a3 96 bd 86 4e 9b bd
       0.07055927 -0.071271814 -0.07355358 -0.075833365
0001e0 2a a8 64 3e 23 28 03 3e e8 c1 96 3c dd c4 c4 bd
       0.22329774 0.1280828 0.018403009 -0.09607861
0001f0 a6 9d 34 bc 9c 3d f3 bd ea 6e fc bc 9b bf 8c bd
       -0.011023914 -0.118769854 -0.030814607 -0.06872483
000200 08 74 62 be 1e 6d 34 be a9 eb 05 be be 6c e9 bd
       -0.22114575 -0.1761975 -0.13078178 -0.11397694
000210 18 31 06 be 8b ee 0c 3c 57 49 31 be a8 3f 0f bc
       -0.13104665 0.008601795 -0.17313133 -0.008743204
000220 80 e0 89 3c 69 6b 33 be da b8 5a 3e 95 02 c7 bd
       0.016830683 -0.17521442 0.21359578 -0.09717289
000230 a2 55 84 3d ec c4 ac bd 06 a9 21 be 10 18 89 be
       0.06461646 -0.08435997 -0.15787134 -0.2677617
000240 2e 07 a8 bd 49 44 06 3e b0 86 1a 3e 0d 77 21 be
       -0.082044944 0.13111986 0.15090442 -0.1576807
000250 de bc 9d 3d e0 69 f7 3c a5 bd ce 3d d4 30 19 bb
       0.07702039 0.030201852 0.100947656 -0.002337505
000260 f0 c7 1c bd cc 02 9d 3c d1 36 13 be 15 51 69 3e
       -0.038276613 0.019166373 -0.1437638 0.22784837
000270 fc 10 99 bd ac 70 a8 3d 13 e2 05 3e d9 e7 3b 3d
       -0.07473943 0.082246155 0.13074522 0.045875404
000280 1d 36 52 bd a8 f7 af 3d bd 25 0a 3e a4 21 2a be
       -0.051321138 0.085921586 0.13490959 -0.16614395
000290 d4 01 39 3c f3 e1 82 be bd 85 7b be 8c 20 a3 bd
       0.01129194 -0.2556301 -0.24562736 -0.07965192
0002a0 5c 7a 73 3d 09 0d 3a 3d 1c d5 c3 39 41 b9 d9 3d
       0.059442863 0.045422588 0.00037352077 0.106310375
0002b0 e2 9e a8 3d f7 63 a0 3d 3f 8a 4d 3e 1b a1 77 3d
       0.082334295 0.07831567 0.20072268 0.060456377
0002c0 a5 7b ca bd 66 d5 0b 3c 66 d4 40 be e8 bf 77 3d
       -0.098868646 0.008534765 -0.18831024 0.06048575
0002d0 1c f6 e8 3d f2 15 ea bd 70 10 12 3d 0b b4 bd bd
       0.11375067 -0.11429967 0.035660207 -0.09262856
0002e0 40 a3 3d 3e 40 4c 74 3d 03 8b 24 3e e8 0e 0e be
       0.18519306 0.05964303 0.16068654 -0.13872874
0002f0 ec d3 23 3e 7d a0 ac bd 86 7c 66 be 28 75 d9 3b
       0.1599881 -0.08429048 -0.2250844 0.0066362806
000300 99 5b 8a 3d 0c 0a ff 3d d5 bb 88 bd c6 8b e9 3d
       0.06755752 0.12453088 -0.06676451 0.11403613
000310 0c b1 73 bc 92 04 0c be 19 db 07 3e 82 11 a4 bd
       -0.014873754 -0.13673618 0.13267173 -0.08011152
000320 9b 33 0e be 5b 5e 4a be 93 02 58 bd 02 47 1e be
       -0.13886873 -0.19762556 -0.05273683 -0.15456775
000330 06 78 b1 bd a7 de 45 3b a8 55 df bc ce e7 0f be
       -0.08665471 0.0030192526 -0.027262524 -0.1405327
000340 88 ca 17 be 73 8d c0 3c 8a df 65 3e b1 9d 90 bd
       -0.14823353 0.023504948 0.22448555 -0.07061327
000350 21 45 23 bd 0e dc 26 bd 37 a1 4e be ec 90 3f be
       -0.03986085 -0.040737204 -0.20178686 -0.18707627
000360 b2 95 e0 3c b7 c1 1a be 50 cc 9a bd 0f 33 23 be
       0.02741513 -0.15112959 -0.07558501 -0.15937446
000370 08 3c 4f 3e d0 17 06 be e6 bf 62 3e 4f 8b 71 3e
       0.20237744 -0.13095021 0.22143516 0.23588298
000380 fa fa 0c bc 5b b3 b8 bd d1 bf 0b 3e 89 37 2e 3e
       -0.008604759 -0.09018584 0.13647391 0.17013372
000390 47 e8 4f 3e a6 bb 7c 3e d4 3c 84 3d 16 98 76 be
       0.2030345 0.24680957 0.064569145 -0.24081454
0003a0 4e 1b 53 bd b1 d9 75 3e 3c 2f cb bc 1e 22 56 3e
       -0.05153971 0.24008824 -0.024802797 0.20911452
0003b0 9e ad 3a 3e dc f9 c5 3d 77 c1 63 3e df 34 5a be
       0.18230292 0.096667975 0.2224177 -0.21309231
0003c0 ac c9 a1 3c 6b 60 85 3e a6 2d ea 3d 72 14 60 be
       0.019749485 0.26050124 0.11434488 -0.218828
0003d0 de a1 75 3e b7 fb fe 3c 32 88 08 3b 8a bf f4 3d
       0.23987529 0.031125886 0.0020833132 0.11950596
0003e0 84 5f ae 3d 8c 06 04 be ca 35 2f be 8f d4 2e 3d
       0.08514312 -0.12893122 -0.17110363 0.04268318
0003f0 0c bc 73 be c2 fb 29 3e 12 c9 0e be 8e 3b a5 bd
       -0.23802203 0.16599944 -0.1394389 -0.08068

arith.constant10 f4 [128, 640]
000000 5a ba 6c bc a1 3a 86 3d 9d e1 93 bd 06 8e 40 3d
       -0.014448727 0.06554151 -0.07220767 0.047010444
000010 61 21 c4 bc 32 0d d2 3d ff 8c 59 3d 97 83 0e 3e
       -0.023941698 0.10256423 0.05311298 0.13917385
000020 67 d0 de bc a0 00 eb bb 67 97 38 3c 9c 57 6b 3c
       -0.027198983 -0.0071717054 0.011266566 0.014364149
000030 22 be 03 bd f9 e8 be 3d 64 67 c1 bc a4 5c 20 3d
       -0.032163747 0.0932178 -0.02360887 0.03915085
000040 ab 3f 99 3d 29 a7 40 b9 4f 55 04 3d 50 64 e9 bc
       0.07482847 -0.00018372819 0.03230792 -0.028490216
000050 c0 4c ee 3b 43 b8 52 3d 1c fa de bb df cf c2 bc
       0.007272333 0.051445257 -0.0068047177 -0.023780761
000060 53 01 0f bd c4 0a c6 3c 3d 04 06 bd c1 46 c1 3d
       -0.034913372 0.024175055 -0.032718886 0.09437323
000070 b3 9e 97 bd c9 d9 ed 3c 02 96 a4 3d c2 25 c6 bb
       -0.07403316 0.029034512 0.08036424 -0.0060469816
000080 92 32 96 bd 7d 67 d4 3d 17 a6 85 bd 34 df af 3d
       -0.07333864 0.10371301 -0.0652582 0.085874945
000090 c4 0e f9 3d 08 70 20 3d 15 98 c1 bb c9 0c f9 3b
       0.121610194 0.03916934 -0.005908022 0.007600401
0000a0 d3 90 fc bc b7 a3 a1 bc 1f 9b c0 3c ce e3 4f 3c
       -0.030830776 -0.019731386 0.023511468 0.01268859
0000b0 47 dc ae 3d 40 eb 05 bb 80 32 15 3d 8b 96 01 3c
       0.08538108 -0.002043441 0.036425114 0.007909427
0000c0 7c a0 f0 3d 15 b9 54 bc f7 9a c6 3c 6c 19 c4 bb
       0.1174936 -0.01298358 0.024243815 -0.005984476
0000d0 f4 34 82 bd 20 30 14 3b a8 cd 9f 39 18 e3 8b bd
       -0.06357756 0.0022611693 0.0003048007 -0.06830424
0000e0 4a f8 a7 3d d1 3f a7 bd 64 51 52 bd 77 c7 7c 3d
       0.08201654 -0.08166469 -0.05134715 0.061713662
0000f0 c9 e1 7b bd 7b 8d 55 bd e1 52 bb bd 7e 48 79 3d
       -0.061494622 -0.05213688 -0.09146667 0.06086015
000100 3f 19 3d 3d 0b a4 d7 3c 21 14 c4 3c 39 70 34 bc
       0.046166655 0.026323339 0.02393538 -0.011013084
000110 49 90 0f bd f1 e7 29 bc 17 72 72 3d 61 cf b3 3d
       -0.03504971 -0.010370241 0.059190836 0.08779789
000120 72 46 3a 3d 3f 07 5a bd e2 a0 90 bd d6 05 79 bd
       0.045477338 -0.053229567 -0.07061936 -0.06079658
000130 06 a0 63 3b 35 b2 ab bd 3a b1 ac bc c7 cd 8c 3d
       0.0034732833 -0.083836 -0.021080602 0.068751864
000140 9b 6a 8d bc 1b 94 47 bc 2e 50 ee bc 84 bd e2 3d
       -0.017262748 -0.012181307 -0.029090967 0.110713035
000150 b3 50 6c 3d 76 dd e2 3c 7a 79 87 3d de 1e 14 3d
       0.05769415 0.027693491 0.06614967 0.03616225
000160 c9 ce dd bc 7b 33 0f bd 4b fd 58 3d 97 69 8a 3d
       -0.027076142 -0.034961205 0.052975934 0.06758421
000170 f5 18 fa bc 3e f7 b9 3d cc bc 46 bd 65 52 06 3e
       -0.030529479 0.09080361 -0.048519894 0.13117369
000180 a5 db 96 3b ba 20 7e bd 46 70 8e 3d de 80 5e 3d
       0.0046038204 -0.06204293 0.06955008 0.054322116
000190 b7 cc a3 3d 1e 8c 77 bd 16 77 e4 bc 00 0f 3a bc
       0.07998031 -0.06043636 -0.027888816 -0.011356115
0001a0 62 eb 9b 3d 41 dc b5 3d 91 1e fd 3d d5 f6 08 3e
       0.07613255 0.08879901 0.12359346 0.13375409
0001b0 fd 25 6c 3d eb ad c4 bd 87 48 97 bc 79 a3 8b bd
       0.057653416 -0.09603485 -0.0184672 -0.06818289
0001c0 28 c6 f3 bd 67 ad fa bb 91 f7 5e 3d 50 20 ff 3c
       -0.1190303 -0.0076500657 0.054435316 0.031143337
0001d0 64 c8 91 bd be 82 8e 3d 9e 7c d1 3c 06 39 95 3d
       -0.071182996 0.06958531 0.025572117 0.07286267
0001e0 3b ec 8c 39 85 3a 37 bb d9 6b 79 bd e5 c6 97 3d
       0.00026878886 -0.0027958464 -0.060893867 0.07410983
0001f0 a9 ca 9d 3d 29 8d 92 3d 7c 3f 5b 3d a6 0d 99 bd
       0.0770467 0.071558304 0.05352734 -0.07473306
000200 90 2a 5c bd 09 27 85 3d 94 3e ac bc dc d2 3c bd
       -0.05375153 0.06501586 -0.021025933 -0.04609953
000210 ce 33 ab bc 6e 60 05 bc 23 f4 91 3d 59 1c fe bb
       -0.020898726 -0.008140666 0.071266435 -0.007754844
000220 dd e8 56 bd f3 71 b2 bd 9a 5b 32 3d d0 1b 2c bd
       -0.05246817 -0.0871314 0.04354439 -0.04201871
000230 8c a9 6e bd 09 38 b0 bd 34 13 92 bc ad 44 cf 3b
       -0.05826716 -0.08604438 -0.017831422 0.0063253255
000240 03 b6 96 bd ff cc 13 bd 38 5a 8c bd 66 33 39 3d
       -0.07358935 -0.03608417 -0.06853145 0.045215033
000250 14 64 d6 3c 58 ae 93 bc d3 a9 b5 bd 1b ba af 3d
       0.026170768 -0.01802747 -0.08870282 0.08580419
000260 92 29 85 bd ea 28 00 bd b0 24 4a 3d 82 95 b2 bc
       -0.065020695 -0.03128902 0.049351394 -0.021799807
000270 42 52 ab 3c 89 b1 85 bd dd fc ee bc af a9 08 3d
       0.020913247 -0.06528003 -0.029173309 0.033364948
000280 bb d1 da 3a d1 23 97 3d 20 45 a1 bb a4 ab 32 bd
       0.0016694585 0.07379878 -0.0049215704 -0.04362072
000290 8b 5d 4a 3d b5 72 f3 bc 5e d3 ee 3c ff 60 6a 3d
       0.049405616 -0.029717783 0.029153522 0.05722141
0002a0 f9 17 12 bc 81 66 81 bc 9b 41 ef 3c f0 65 e5 bb
       -0.008916848 -0.015795948 0.029206088 -0.0070006773
0002b0 64 73 af 3b 5e 0e 12 bd 96 76 f8 bb 79 12 a8 3d
       0.005354332 -0.035658233 -0.007582496 0.082066484
0002c0 f6 f8 32 bd e9 ae 47 bd bf b3 b9 bd 68 7a a0 bc
       -0.04369446 -0.04875079 -0.09067487 -0.019589618
0002d0 c6 36 be bc d7 e9 61 bd fe bf 08 3c 9c 1e 59 bc
       -0.023219477 -0.055154648 0.008346556 -0.013251927
0002e0 28 23 8f 3c 90 3a 86 bd 91 4b a4 bd 23 6d 0c 3d
       0.017472818 -0.06554139 -0.08022226 0.03428377
0002f0 5a 5c a5 bc 82 e0 25 3d c4 fb b5 bd ee 57 27 bd
       -0.020185638 0.04049731 -0.08885911 -0.04085534
000300 c1 3e 6c 3d 20 22 d5 bb 60 63 82 bc ed 51 71 bd
       0.057677034 -0.006504312 -0.015916526 -0.05891602
000310 70 80 43 bc 73 fc 00 3d 6b 1f 13 3d 9f 00 99 3d
       -0.011932477 0.031490754 0.035918634 0.074708216
000320 b4 df 71 bd 38 f2 98 3c 34 f3 9e bd bc a5 6c 3d
       -0.05905123 0.018670186 -0.07761231 0.057775244
000330 9c ab 79 3d 72 47 98 3d 85 12 45 3c 46 17 b9 3d
       0.060954675 0.07435502 0.012028341 0.09037642
000340 52 ba e3 3c 21 97 9a bd 2e 37 a6 3d 59 6a 37 3b
       0.027798805 -0.07548357 0.081159934 0.0027986972
000350 36 4b 9a bd 3d db b0 bd 9c e2 f3 3c 4e 94 9c 3d
       -0.075338766 -0.086355664 0.029771142 0.076454744
000360 b3 b4 81 3d 5b 00 61 3d 20 3f 3d 3d b9 6c 82 3d
       0.06333294 0.05493198 0.04620278 0.063683935
000370 00 b1 10 3d 16 41 93 3d 9d e1 a9 3d 72 49 5c 3d
       0.03532505 0.071901485 0.082949854 0.05378098
000380 fa d9 8f 3d 17 5a 37 3d ea 18 81 3d f3 53 0f bc
       0.070239976 0.04476365 0.0630358 -0.008748042
000390 a9 b9 02 bd 44 c5 2e 3b d4 16 2b 3c d2 bc 82 3d
       -0.03191534 0.0026667872 0.010442454 0.06383671
0003a0 fe 56 04 bd dd 08 4f 3d f6 33 9d bd 3e 4f 9c bc
       -0.032309525 0.050545562 -0.076759264 -0.019080754
0003b0 d1 17 84 bd aa e4 aa bd 6a f2 ab 3c a6 b8 49 3d
       -0.06449855 -0.083443955 0.020989615 0.04924836
0003c0 4f 27 e3 bc 93 8e 86 bd a8 8a 16 3d 10 cb 80 3c
       -0.027728705 -0.065701626 0.036753327 0.015721828
0003d0 e2 28 af 3d 7e 62 91 3d 03 91 a4 3d 0d e4 88 3d
       0.0855272 0.07098864 0.08035471 0.06684122
0003e0 a7 89 63 bd e9 50 5f 3d 26 2d 90 bd 46 97 02 3d
       -0.055551197 0.05452052 -0.070398614 0.031882547
0003f0 c3 35 b4 3c d3 05 1f bc 1a 78 82 bd 3b d8 27 bd
       0.021998292 -0.009705978 -0.06370564 -0.040977698

arith.constant11 f4 [1, 1, 64]
000000 e1 93 09 bc f4 cd 55 3c 81 65 8a 3c b8 57 c3 bb
       -0.0083970735 0.013049591 0.016894104 -0.0059613846
000010 f4 08 ed 3b 01 41 69 bb 9d ca a7 bb ce c8 69 3c
       0.0072337333 -0.0035591724 -0.005120589 0.014269067
000020 98 a1 c3 bb 2e a1 8b 3c 04 52 ac bb 45 8c 55 3c
       -0.005970191 0.01704463 -0.0052588005 0.013033931
000030 6c 3a 1b 3c 11 82 a3 3b ba 5f 22 3b 8d 46 c4 bb
       0.009474378 0.0049898704 0.0024776296 -0.0059898556
000040 da 89 26 3c cb 1c aa 3c 2a da 71 3c 0b 40 b2 3c
       0.010164702 0.020765683 0.014761487 0.021759054
000050 83 b1 dd bb 00 00 00 00 df 59 c4 bb c9 9e c4 bb
       -0.006765546 0.0 -0.005992159 -0.006000374
000060 f1 40 3b 3c 72 ee 60 3c 00 00 00 00 1d ce 60 bb
       0.011429057 0.013728725 0.0 -0.003430254
000070 6a 50 84 3c e9 83 2b 3c 97 69 d1 3b 06 e1 8e 3c
       0.016151626 0.010468462 0.006390761 0.017441284
000080 b0 98 53 3c 9a ba 11 bc 00 00 00 00 c4 43 c7 3c
       0.0129148215 -0.008894587 0.0 0.024324305
000090 19 ca 4d 3b 6c f4 be 3b 3e 3e 93 3c 20 c7 c8 bb
       0.0031400977 0.005827477 0.017974015 -0.006127253
0000a0 00 00 00 00 82 d7 15 3c 42 fe 39 3c 90 35 96 3c
       0.0 0.009145619 0.011352124 0.018336087
0000b0 92 71 e7 bb 21 21 c1 bb b9 27 f8 3a b1 81 af bb
       -0.007063099 -0.005893842 0.0018932737 -0.0053560366
0000c0 ba b4 7b 3c f0 3c 41 3c e0 9b 0c 3c 6d 88 29 3c
       0.015362913 0.011794314 0.008582085 0.010347468
0000d0 96 97 2e 3c 3a 3f e6 3b 95 dc 62 3b 0f ea e7 bb
       0.010656258 0.00702658 0.003461634 -0.0070774625
0000e0 d3 69 a6 bb 62 65 79 3c be de 4d 3c 6a 64 24 3c
       -0.005078533 0.015221925 0.012565313 0.010033706
0000f0 b0 86 7e 3c c1 75 1d bc d9 72 0e 3b ed 60 52 bb
       0.015535042 -0.009610594 0.0021735935 -0.003210123

arith.constant12 f4 [1, 1, 128]
000000 14 9b c8 ba 1f e2 5f bc b1 1b a9 ba 6e 29 50 3b
       -0.0015305006 -0.013664751 -0.001290193 0.0031762975
000010 68 47 cd bb eb 82 70 3b a0 01 9a bb b9 d8 81 3b
       -0.006264616 0.0036699127 -0.0046999007 0.003962603
000020 7e c6 20 3c 00 00 00 00 99 28 1e bc 1a a7 9f bb
       0.009812949 0.0 -0.009653234 -0.004872215
000030 7d ef 13 3b c1 31 61 3b 00 00 00 00 59 95 6e bc
       0.0022573166 0.003436193 0.0 -0.014561974
000040 ef 02 53 3c 91 01 4f 3c 88 ae c4 bb 00 00 00 00
       0.012879117 0.012634651 -0.006002251 0.0
000050 00 00 00 00 2b c3 e4 3c 89 10 ad 3c 98 8c 16 bc
       0.0 0.027925095 0.021126049 -0.009188794
000060 b8 36 11 3c 64 86 cb ba 0d 16 17 3c 47 ef a7 3b
       0.008863144 -0.0015527722 0.009221566 0.0051249596
000070 e4 67 b3 3a 99 b9 c4 bb 1e f9 28 38 2e da 86 3b
       0.0013687578 -0.0060035703 4.028633e-05 0.0041153645
000080 86 1a ee bb f3 86 36 3c 6e b3 ab bb 8c 08 a3 ba
       -0.0072663454 0.011140573 -0.0052398955 -0.001243846
000090 1b e8 ed 3a 28 64 31 bb c6 66 c6 3b ba 43 c5 3b
       0.0018150838 -0.0027067754 0.006054732 0.0060200365
0000a0 4e 77 f1 ba f2 06 49 bc 99 1a 1b 3c d5 99 2f ba
       -0.0018422396 -0.012269722 0.009466791 -0.0006698643
0000b0 8f bb a0 3c 16 4d 0c bc 3a 4b e2 ba 24 be 1a 3c
       0.019620685 -0.008563301 -0.0017264851 0.009444747
0000c0 b1 a2 0e 3b 6c d8 e9 bb 1b 0f 33 bb d3 c8 c0 bb
       0.0021764452 -0.007136395 -0.0027322236 -0.005883315
0000d0 2c 47 83 3b 86 f1 7c 3c b4 e9 f1 bb 50 26 cf 3c
       0.004006287 0.015438443 -0.007382596 0.025286824
0000e0 0c 8a 00 3b 00 3a c4 3b cc 47 c6 bb d8 fb 21 ba
       0.0019613532 0.0059883595 -0.0060510393 -0.000617919
0000f0 73 06 50 bc 73 90 c4 bb b3 62 02 3b 00 00 00 00
       -0.01269685 -0.005998665 0.0019895255 0.0
000100 a0 22 b6 bb b3 74 b4 bb 72 8b a8 bb 2d c3 c4 bb
       -0.005558327 -0.0055070757 -0.0051435763 -0.006004712
000110 9d 31 0f 3c 37 a0 91 3c cf 15 7d bb 7c 7f 9a bb
       0.008739856 0.017776592 -0.0038617735 -0.0047149044
000120 bb 24 98 bb ce 0b 0c bc 12 d1 78 3c 0e 2f 90 bb
       -0.0046430505 -0.008547736 0.015186565 -0.0044001406
000130 c0 82 9f 3c 4a 2e 7f bb 67 06 1e 3c 14 cc 6a ba
       0.019471526 -0.0038937503 0.009645081 -0.00089568016
000140 59 ff 23 bc 1e 7a b1 3c d5 1d a2 3c 69 71 29 bb
       -0.01000961 0.021664675 0.019789616 -0.0025854951
000150 4a 79 c6 bb b3 f8 27 bc d2 75 12 3c 32 54 37 3c
       -0.0060569393 -0.010252166 0.008939223 0.011189507
000160 59 06 f1 bb 9e 87 27 3c ea a1 dd bb 7e 3c 4e bc
       -0.007355493 0.010225205 -0.0067636864 -0.012587665
000170 d3 06 2d ba 14 5e b9 bb ad af 9a ba 49 53 b8 bb
       -0.0006600443 -0.005656967 -0.0011801623 -0.0056251627
000180 54 63 16 bc 42 e9 82 3b 87 1a 09 bb 12 e3 12 bc
       -0.009178955 0.0039950917 -0.0020920353 -0.008965271
000190 5e c5 c4 bb 78 64 15 bc 9b 86 3d bb d6 77 44 3b
       -0.0060049733 -0.009118192 -0.0028919342 0.0029978654
0001a0 fb 21 35 3b d4 68 37 ba bc 2d 99 3b 26 12 b4 3c
       0.0027638662 -0.00069965166 0.0046746414 0.02198131
0001b0 9b dd 7d 3b 80 38 c7 3c 17 6b 00 bc fa 2e 1a ba
       0.0038736823 0.024318933 -0.007838032 -0.0005881634
0001c0 69 1a a6 3c 48 dd e8 ba bd ee c7 bb 74 01 5d bb
       0.020276265 -0.0017766142 -0.006101458 -0.003372279
0001d0 c6 ab d8 bb df 25 c5 3b 2a 37 26 3c a1 25 86 bb
       -0.006612274 0.0060164775 0.010144988 -0.004093841
0001e0 4e 51 74 3c 56 3e 8a 3c dc f6 02 3b 9b 42 56 3c
       0.014911963 0.016875427 0.0019983565 0.013077403
0001f0 42 c1 87 bb 6d 09 22 3c 57 21 b6 bb 5e 30 bb bb
       -0.004142911 0.009889943 -0.0055581736 -0.005712553

arith.constant13 f4 [19, 128]
000000 4d 66 34 3d 81 29 8a bd 52 54 06 bc 61 e2 b6 bc
       0.044042874 -0.067461975 -0.0081988145 -0.022324743
000010 c3 44 13 3b e5 cd 73 3d 0d 84 74 3d 09 d0 93 3d
       0.0022471405 0.05952253 0.059696246 0.07217414
000020 d4 39 5f bd 4c 0b 00 3d 0a 48 24 bd 1e 05 8e 3c
       -0.05449851 0.031260774 -0.040107764 0.017336424
000030 92 a3 27 3c 11 93 dd bc bc d9 cf bd cb b7 8b 3d
       0.010231869 -0.027047666 -0.101489514 0.06822165
000040 0f 48 5f 3c 37 32 70 bd 44 72 e7 bd d4 4e 77 3d
       0.01362802 -0.05864164 -0.11301091 0.06037791
000050 fb c1 5f bd 06 f6 ca 3d 56 b6 cb bb df 34 2e 3d
       -0.054628354 0.099102065 -0.0062168045 0.04253089
000060 50 79 02 3e f9 30 9f 3c 9f 9f 41 bd 62 f6 85 3d
       0.1274159 0.019432532 -0.047271367 0.065411344
000070 1f a6 0b bc 8d f2 95 3d 76 e9 8a bd 52 80 41 3d
       -0.008523493 0.073216535 -0.067828104 0.047241516
000080 1c 7f 8c bd 7b c8 e9 bc 58 81 00 be 3d 52 1c 3d
       -0.06860182 -0.02853798 -0.1254934 0.038164366
000090 8c 7f 6b bc c2 33 ba 3d 81 5d ab bd 75 26 89 bd
       -0.014373671 0.09091903 -0.08367444 -0.06696788
0000a0 b2 ff d1 bc 9a be aa 3c 89 cf 9e 3d 20 5d 46 3d
       -0.02563462 0.020842839 0.07754428 0.048428655
0000b0 9a ba b7 3d cc a9 a1 3d 38 00 f4 bd c6 85 94 bd
       0.08971138 0.07893714 -0.11914104 -0.07252078
0000c0 25 3d b8 bd 95 54 e6 bd 48 12 e3 bc e7 3d 48 bd
       -0.089960374 -0.112466015 -0.027718678 -0.04888716
0000d0 db cc ea 3d e0 72 14 bd 00 56 39 3d 2d b5 a2 3d
       0.11464854 -0.036242366 0.04524803 0.07944713
0000e0 d2 d3 a9 bd 01 c0 5b bd 03 60 ef 3c ff 31 af 3d
       -0.08292355 -0.053649906 0.029220587 0.08554458
0000f0 c5 eb c6 bc ea b0 64 bd 79 83 c6 3c 9b 1a 90 bd
       -0.024282346 -0.05583278 0.024232613 -0.070363246
000100 10 36 1c bd e9 f7 ae 3d 26 2b b3 3d 92 90 bf bb
       -0.038137496 0.08543379 0.08748464 -0.0058460915
000110 b3 9f bc bd b7 7f 6f bd d3 27 65 bd b5 42 9e bc
       -0.09210148 -0.058471408 -0.055946182 -0.019318918
000120 42 da a0 3d f5 f4 54 bc 30 09 1e 3d b7 bf 9f 3d
       0.078541294 -0.012997855 0.03858298 0.078002386
000130 28 02 c0 bd d8 3d e7 3c 06 bc f7 3c 21 d4 e0 bc
       -0.09375411 0.028227732 0.030241024 -0.027444901
000140 c5 51 c9 bd c1 5a 02 bd ec 09 9e bd 56 37 5e 3d
       -0.098300494 -0.03182483 -0.07716736 0.05425199
000150 3d f6 df bd a3 ce 4f 3d 6d a5 bb bd 62 09 90 bd
       -0.10935638 0.050734174 -0.09162412 -0.0703304
000160 45 a4 c4 bc 0b a1 f3 bc 3d cc 3e bb 31 03 c0 bc
       -0.024004111 -0.029739877 -0.0029113435 -0.023439022
000170 1d 04 32 bd 43 f1 a8 3b 19 39 f1 bc 69 8c 93 3d
       -0.043460954 0.0051557138 -0.029446172 0.072045155
000180 d2 67 20 3d 30 cf 9d bd 7e f0 ac 3d cf 9b af bd
       0.03916151 -0.077055335 0.08444308 -0.0857464
000190 1d 24 be bd 9f 52 a4 bc a9 0e 03 3d c3 47 02 3e
       -0.09284232 -0.020058928 0.031996403 0.12722687
0001a0 e1 94 b0 bb f8 45 c6 3c 8a 31 55 3d a9 03 bc 3d
       -0.0053888415 0.024203286 0.052049197 0.091803856
0001b0 8f 1c 9f 3d fa 4e 92 3d a2 fd 12 3c 3b 05 a9 bd
       0.07769119 0.0714397 0.008971604 -0.08252951
0001c0 ef 63 9c 3d 96 fe 4c bd dc 33 95 bc 9e 1c 8e 3d
       0.07636248 -0.05004748 -0.018213205 0.06939052
0001d0 3a d8 0b 3d 05 b0 ef 3c 57 cf 6e 3d b0 28 46 3d
       0.034141757 0.029258737 0.058303203 0.048378646
0001e0 64 ad 84 bd 7e 34 67 bd b8 66 85 3d a7 65 1b bd
       -0.06478384 -0.056446545 0.06513733 -0.03793874
0001f0 5d 8a 9c 3d c6 06 8f bc 51 6c 22 bd ca c1 97 3d
       0.07643578 -0.017459285 -0.03965408 0.07410009
000200 a8 dd 79 3c aa 34 55 bc a2 73 18 bd 32 74 31 3c
       0.015250601 -0.013013044 -0.03721965 0.010830926
000210 c1 86 e5 3c 12 03 49 3c 0c 2d ed 3c 1e 19 dc 3d
       0.028018357 0.012268798 0.028952144 0.10746978
000220 98 e0 bd 3d d0 a3 76 3d 1b b2 6d bc b0 17 58 3d
       0.092713535 0.060214818 -0.014507796 0.052756965
000230 a7 fd 05 bd b2 20 9a 3d 63 fd ba 3c 4b da 2c be
       -0.032712605 0.075257674 0.022825902 -0.16880147
000240 8a 2f 73 bd b2 b3 79 3c 41 5a fc bb 02 29 d2 3d
       -0.05937151 0.015240597 -0.007701189 0.10261728
000250 62 5a b0 bd 0d b3 cc 3d eb 6f d0 3d eb d4 13 be
       -0.08610989 0.09995089 0.10177597 -0.1443669
000260 6d 95 30 3d 67 a6 43 bc f4 95 4c 3d d6 a9 0c be
       0.043111254 -0.011941529 0.049947694 -0.13736662
000270 e1 03 bb 3b 5a fe 1a bc 5d 35 84 3d 1e ab f8 bd
       0.0057072495 -0.009460056 0.06455491 -0.12142013
000280 2a e0 00 bd 8a 39 a2 bd 2f 43 18 be 33 4b 02 3e
       -0.03146378 -0.07921131 -0.14869379 0.12723999
000290 93 8e 91 3d e7 74 8d 3d c5 11 1c 3d 2d 9c fe bd
       0.07107272 0.06907063 0.038102884 -0.12432132
0002a0 7a a4 0f 3e 69 38 f3 bc a9 35 f7 bc d9 d2 e4 bc
       0.14027587 -0.029689984 -0.030176954 -0.027932571
0002b0 be 29 06 3c 45 bc 33 3a 4e 2b 16 be 61 2f 23 3e
       0.008188663 0.00068563625 -0.14664957 0.15936042
0002c0 be 92 4c bd e5 67 ce bd 92 e6 0c bd 57 e4 0a bd
       -0.04994463 -0.1007841 -0.034399576 -0.033909168
0002d0 a4 f7 c9 3d b8 2a e2 3d f5 3c 5f 3d 69 ca 80 3c
       0.09861687 0.11043304 0.054501493 0.015721517
0002e0 03 21 92 3c 29 62 13 bd 6e fb 2a be eb 68 8f bd
       0.017838007 -0.035982285 -0.16697475 -0.070024334
0002f0 2a 6d c8 3c 11 7d 82 3d 76 57 e5 bd e7 6f bc bd
       0.024466116 0.06371511 -0.111983225 -0.09201031
000300 e7 9b 26 3b 2b 64 28 3e 9d 25 74 3d d4 87 2d bd
       0.0025422515 0.16444461 0.059606183 -0.042365864
000310 ae 88 16 be a5 4a a1 3d 31 22 08 bd a8 55 7c bd
       -0.14700577 0.078755654 -0.033235732 -0.061605126
000320 76 6f 33 3d af 85 ed 3d f1 fc d4 3c 9d d8 33 3c
       0.04380747 0.11597764 0.025999518 0.010976938
000330 95 a7 1b be ed 6e ef 3c ec ad b4 3d 8d e8 78 3d
       -0.15200646 0.029227698 0.088222355 0.060768653
000340 51 91 e7 bd 06 0b c3 bd 01 4d 35 bd 2c 50 d5 3d
       -0.11307014 -0.09523587 -0.04426289 0.10415682
000350 c2 d5 6c 3d 9d 21 08 be be e0 9c 3c 8c 11 cf bd
       0.057821043 -0.13294072 0.019150134 -0.10110769
000360 68 25 cf bd 24 96 0f 3d 4a b8 6d 3d 2a 5d a6 bd
       -0.101145566 0.035055295 0.05803708 -0.081232384
000370 aa 36 ce 3c 41 9e 8c bb 3f 16 d2 bd 52 35 f9 3d
       0.02517255 -0.0042913263 -0.10258149 0.12168373
000380 44 41 4f 3d fb 49 0d 3d 60 e8 68 3d f6 f5 1e bc
       0.05059935 0.03449438 0.056862235 -0.009702196
000390 40 60 a1 bd 71 83 9c 3d 15 2d 1b 3b 76 45 b0 3d
       -0.07879686 0.07642258 0.0023677994 0.086069986
0003a0 be 1c 26 3d f5 77 b6 bd 69 68 80 bd 76 ee 90 3c
       0.040554754 -0.08909599 -0.06269915 0.017691832
0003b0 c6 57 f1 3c d4 49 92 bd 35 53 1e 3c 06 c6 49 bd
       0.029460799 -0.07142988 0.009663393 -0.049261115
0003c0 50 fd 1b bd b4 80 cc 3d b0 3c 8c 3a 31 4b cd 3c
       -0.038083375 0.09985486 0.0010699239 0.025060268
0003d0 b4 37 01 bd bc 70 04 be fe 68 b4 bd 92 71 e4 3d
       -0.031547263 -0.1293363 -0.08809088 0.11154474
0003e0 63 fe cf bd 2a bb e0 3c b7 c9 cb 3c 0f 55 73 bd
       -0.10155942 0.027432997 0.024876459 -0.05940729
0003f0 cc 54 8c 3c ac d8 40 bd 20 a1 e3 bd 4e fd 82 bd
       0.017130278 -0.047081634 -0.111147165 -0.0639597

arith.constant14 f4 [128]
000000 24 ba 02 bb d0 34 cd b9 e3 68 18 3c 15 2b b5 bb
       -0.0019947374 -0.00039139995 0.009302351 -0.0055288174
000010 77 6a b3 bb 85 eb e8 ba 12 72 47 ba 17 f0 aa ba
       -0.005475338 -0.0017770386 -0.00076082454 -0.0013041523
000020 28 37 4d 3c 6c c2 c4 bb 0d 42 76 3c 0c c6 9d bb
       0.012525357 -0.006004622 0.015030396 -0.004814869
000030 3c 38 5b 3c 00 00 00 00 da c4 c4 bb fc bc 76 3b
       0.013380107 0.0 -0.006004912 0.0037649265
000040 00 00 00 00 a3 db 1b 3c 7f 8e 85 3c c7 c2 42 3b
       0.0 0.009512815 0.016303299 0.0029718147
000050 4b e5 9e ba 00 00 00 00 43 66 e7 bb 03 bd 00 3c
       -0.0012122778 0.0 -0.007061751 0.007857564
000060 aa a3 dd 3b 47 06 d4 bb 00 00 00 00 d3 e7 6d 3c
       0.006763895 -0.006470475 0.0 0.014520603
000070 00 00 00 00 ed bd c4 bb 00 00 00 00 3a a0 a7 3b
       0.0 -0.006004086 0.0 0.005115536
000080 88 13 f0 bb 8f 35 cf bb 00 00 00 00 27 04 a3 bb
       -0.007326547 -0.0063235234 0.0 -0.00497486
000090 45 0b b5 bb 6e 21 97 bb 41 df cc bb 3b 3f 9a 3b
       -0.005525025 -0.0046121394 -0.0062522 0.0047072447
0000a0 00 00 00 00 09 15 ab 3a 7c f1 b5 bb e1 a1 11 3c
       0.0 0.0013052534 -0.005552469 0.008888693
0000b0 00 00 00 00 e4 c7 93 ba 00 00 00 00 b7 47 15 3b
       0.0 -0.0011274782 0.0 0.002277834
0000c0 05 6f a8 bb 23 22 99 3b 3f 5e 89 3b 0f 24 10 3c
       -0.0051401877 0.004673259 0.004192143 0.00879766
0000d0 aa 8f 76 ba 84 c1 c4 bb 00 00 00 00 2b a2 84 bb
       -0.0009405563 -0.006004514 0.0 -0.0040476522
0000e0 0d 63 0a bc 01 fe 02 3c 01 3b 6e bb cb 92 c7 bb
       -0.008446467 0.00799513 -0.0036351087 -0.006090497
0000f0 63 52 bb bb 7c 0b c2 bb 2e 1a b3 bb c9 a9 0a 3c
       -0.0057166084 -0.005921779 -0.0054657673 0.0084633315
000100 65 27 8c 3c dc 06 06 3c 94 b5 c4 bb 4c 0e 4c 3c
       0.017108629 0.008180346 -0.006003091 0.0124545805
000110 e3 d9 a8 bb 71 c4 c4 bb 28 52 94 bb 20 1f 79 bb
       -0.0051529272 -0.006004863 -0.0045263954 -0.0038012937
000120 43 f6 1c bc 4f cc f6 bb 91 66 0f 3c 05 20 24 bc
       -0.009580198 -0.0075316797 0.008752481 -0.0100174
000130 00 00 00 00 de 28 58 3c 94 2e 19 38 b4 81 07 bc
       0.0 0.013193337 3.6521422e-05 -0.00827067
000140 a6 27 6d 3b 76 39 b3 3b f0 31 4c 3c c8 15 f5 bb
       0.0036186962 0.0054694964 0.012463078 -0.007479403
000150 cf 38 d2 bb 0b 3a 75 3c 79 08 e5 3b 00 00 00 00
       -0.0064154635 0.014967452 0.0069895354 0.0
000160 20 b5 26 3c c3 45 4c 3c b8 ab c4 3b b7 e5 7e bb
       0.0101750195 0.012467804 0.006001916 -0.0038894245
000170 44 1b a9 bb 36 66 75 bb 5b 08 7b 3c e1 a9 99 3c
       -0.005160721 -0.0037444956 0.015321816 0.018757762
000180 23 e6 e7 3b 4e fd d9 bb 00 00 00 00 ba 01 ae bb
       0.007076995 -0.0066525107 0.0 -0.0053102644
000190 00 00 00 00 66 30 32 3c a5 30 69 bb 63 71 95 bb
       0.0 0.010875797 -0.0035581973 -0.004560636
0001a0 9c 1d 1e 3c ea 9e 7e 3c 95 43 b1 bb 10 71 2d 3c
       0.009650614 0.015540818 -0.0054096677 0.010586038
0001b0 36 82 a7 bb 49 87 60 3c 3a 7d 10 3c 00 00 00 00
       -0.005111958 0.0137041295 0.008818919 0.0
0001c0 e1 c3 bc 3b 3d b3 3b 3c 00 00 00 00 bf a9 1d bb
       0.0057606553 0.011456308 0.0 -0.0024057475
0001d0 fc 78 75 3c 58 e9 a8 bb 48 1c b7 bb 10 c3 c4 bb
       0.014982458 -0.00515477 -0.005588088 -0.0060046986
0001e0 ed 5b e1 3b dc 3d ff bb 00 00 00 00 a3 aa e5 bb
       0.0068774135 -0.0077893566 0.0 -0.007008867
0001f0 b1 1f 3e bb 61 37 ab bb 63 59 d4 bb 06 32 af bb
       -0.0029010589 -0.0052251075 -0.0064803823 -0.0053465394

arith.constant15 f4 [3]
000000 94 40 37 bc c2 04 e4 3b 5c a5 62 3b
       -0.01118483 0.006958575 0.0034583425
